…
2021-10-04 20:12:40,324 - WARNING - From /usr/local/lib/python3.6/dist-packages/tensorflow/python/ops/init_ops.py:97: calling GlorotUniform.__init__ (from tensorflow.python.ops.init_ops) with dtype is deprecated and will be removed in a future version.
Instructions for updating:
Call initializer instance with the dtype argument instead of passing it to the constructor
Model: "model"
__________________________________________________________________________________________________
Layer (type)                    Output Shape         Param #     Connected to
==================================================================================================
input_1 (InputLayer)            [(None, 128, 128, 5) 0
__________________________________________________________________________________________________
augmentation_layer (Augmentatio (None, 128, 128, 5)  0           input_1[0][0]
__________________________________________________________________________________________________
rescaling (Rescaling)           (None, 128, 128, 5)  0           augmentation_layer[0][0]
__________________________________________________________________________________________________
normalization (Normalization)   (None, 128, 128, 5)  11          rescaling[0][0]
__________________________________________________________________________________________________
stem_conv_pad (ZeroPadding2D)   (None, 129, 129, 5)  0           normalization[0][0]
__________________________________________________________________________________________________
stem_conv (Conv2D)              (None, 64, 64, 32)   1440        stem_conv_pad[0][0]
__________________________________________________________________________________________________
stem_bn (BatchNormalization)    (None, 64, 64, 32)   128         stem_conv[0][0]
__________________________________________________________________________________________________
stem_activation (Activation)    (None, 64, 64, 32)   0           stem_bn[0][0]
__________________________________________________________________________________________________
block1a_dwconv (DepthwiseConv2D (None, 64, 64, 32)   288         stem_activation[0][0]
__________________________________________________________________________________________________
block1a_bn (BatchNormalization) (None, 64, 64, 32)   128         block1a_dwconv[0][0]
__________________________________________________________________________________________________
block1a_activation (Activation) (None, 64, 64, 32)   0           block1a_bn[0][0]
__________________________________________________________________________________________________
block1a_se_squeeze (GlobalAvera (None, 32)           0           block1a_activation[0][0]
__________________________________________________________________________________________________
block1a_se_reshape (Reshape)    (None, 1, 1, 32)     0           block1a_se_squeeze[0][0]
__________________________________________________________________________________________________
block1a_se_reduce (Conv2D)      (None, 1, 1, 8)      264         block1a_se_reshape[0][0]
__________________________________________________________________________________________________
block1a_se_expand (Conv2D)      (None, 1, 1, 32)     288         block1a_se_reduce[0][0]
__________________________________________________________________________________________________
block1a_se_excite (Multiply)    (None, 64, 64, 32)   0           block1a_activation[0][0]
                                                                 block1a_se_expand[0][0]
__________________________________________________________________________________________________
block1a_project_conv (Conv2D)   (None, 64, 64, 16)   512         block1a_se_excite[0][0]
__________________________________________________________________________________________________
block1a_project_bn (BatchNormal (None, 64, 64, 16)   64          block1a_project_conv[0][0]
__________________________________________________________________________________________________
block2a_expand_conv (Conv2D)    (None, 64, 64, 96)   1536        block1a_project_bn[0][0]
__________________________________________________________________________________________________
block2a_expand_bn (BatchNormali (None, 64, 64, 96)   384         block2a_expand_conv[0][0]
__________________________________________________________________________________________________
block2a_expand_activation (Acti (None, 64, 64, 96)   0           block2a_expand_bn[0][0]
__________________________________________________________________________________________________
block2a_dwconv_pad (ZeroPadding (None, 65, 65, 96)   0           block2a_expand_activation[0][0]
__________________________________________________________________________________________________
block2a_dwconv (DepthwiseConv2D (None, 32, 32, 96)   864         block2a_dwconv_pad[0][0]
__________________________________________________________________________________________________
block2a_bn (BatchNormalization) (None, 32, 32, 96)   384         block2a_dwconv[0][0]
__________________________________________________________________________________________________
block2a_activation (Activation) (None, 32, 32, 96)   0           block2a_bn[0][0]
__________________________________________________________________________________________________
block2a_se_squeeze (GlobalAvera (None, 96)           0           block2a_activation[0][0]
__________________________________________________________________________________________________
block2a_se_reshape (Reshape)    (None, 1, 1, 96)     0           block2a_se_squeeze[0][0]
__________________________________________________________________________________________________
block2a_se_reduce (Conv2D)      (None, 1, 1, 4)      388         block2a_se_reshape[0][0]
__________________________________________________________________________________________________
block2a_se_expand (Conv2D)      (None, 1, 1, 96)     480         block2a_se_reduce[0][0]
__________________________________________________________________________________________________
block2a_se_excite (Multiply)    (None, 32, 32, 96)   0           block2a_activation[0][0]
                                                                 block2a_se_expand[0][0]
__________________________________________________________________________________________________
block2a_project_conv (Conv2D)   (None, 32, 32, 24)   2304        block2a_se_excite[0][0]
__________________________________________________________________________________________________
block2a_project_bn (BatchNormal (None, 32, 32, 24)   96          block2a_project_conv[0][0]
__________________________________________________________________________________________________
block2b_expand_conv (Conv2D)    (None, 32, 32, 144)  3456        block2a_project_bn[0][0]
__________________________________________________________________________________________________
block2b_expand_bn (BatchNormali (None, 32, 32, 144)  576         block2b_expand_conv[0][0]
__________________________________________________________________________________________________
block2b_expand_activation (Acti (None, 32, 32, 144)  0           block2b_expand_bn[0][0]
__________________________________________________________________________________________________
block2b_dwconv (DepthwiseConv2D (None, 32, 32, 144)  1296        block2b_expand_activation[0][0]
__________________________________________________________________________________________________
block2b_bn (BatchNormalization) (None, 32, 32, 144)  576         block2b_dwconv[0][0]
__________________________________________________________________________________________________
block2b_activation (Activation) (None, 32, 32, 144)  0           block2b_bn[0][0]
__________________________________________________________________________________________________
block2b_se_squeeze (GlobalAvera (None, 144)          0           block2b_activation[0][0]
__________________________________________________________________________________________________
block2b_se_reshape (Reshape)    (None, 1, 1, 144)    0           block2b_se_squeeze[0][0]
__________________________________________________________________________________________________
block2b_se_reduce (Conv2D)      (None, 1, 1, 6)      870         block2b_se_reshape[0][0]
__________________________________________________________________________________________________
block2b_se_expand (Conv2D)      (None, 1, 1, 144)    1008        block2b_se_reduce[0][0]
__________________________________________________________________________________________________
block2b_se_excite (Multiply)    (None, 32, 32, 144)  0           block2b_activation[0][0]
                                                                 block2b_se_expand[0][0]
__________________________________________________________________________________________________
block2b_project_conv (Conv2D)   (None, 32, 32, 24)   3456        block2b_se_excite[0][0]
__________________________________________________________________________________________________
block2b_project_bn (BatchNormal (None, 32, 32, 24)   96          block2b_project_conv[0][0]
__________________________________________________________________________________________________
block2b_drop (Dropout)          (None, 32, 32, 24)   0           block2b_project_bn[0][0]
__________________________________________________________________________________________________
block2b_add (Add)               (None, 32, 32, 24)   0           block2b_drop[0][0]
                                                                 block2a_project_bn[0][0]
__________________________________________________________________________________________________
block3a_expand_conv (Conv2D)    (None, 32, 32, 144)  3456        block2b_add[0][0]
__________________________________________________________________________________________________
block3a_expand_bn (BatchNormali (None, 32, 32, 144)  576         block3a_expand_conv[0][0]
__________________________________________________________________________________________________
block3a_expand_activation (Acti (None, 32, 32, 144)  0           block3a_expand_bn[0][0]
__________________________________________________________________________________________________
block3a_dwconv_pad (ZeroPadding (None, 35, 35, 144)  0           block3a_expand_activation[0][0]
__________________________________________________________________________________________________
block3a_dwconv (DepthwiseConv2D (None, 16, 16, 144)  3600        block3a_dwconv_pad[0][0]
__________________________________________________________________________________________________
block3a_bn (BatchNormalization) (None, 16, 16, 144)  576         block3a_dwconv[0][0]
__________________________________________________________________________________________________
block3a_activation (Activation) (None, 16, 16, 144)  0           block3a_bn[0][0]
__________________________________________________________________________________________________
block3a_se_squeeze (GlobalAvera (None, 144)          0           block3a_activation[0][0]
__________________________________________________________________________________________________
block3a_se_reshape (Reshape)    (None, 1, 1, 144)    0           block3a_se_squeeze[0][0]
__________________________________________________________________________________________________
block3a_se_reduce (Conv2D)      (None, 1, 1, 6)      870         block3a_se_reshape[0][0]
__________________________________________________________________________________________________
block3a_se_expand (Conv2D)      (None, 1, 1, 144)    1008        block3a_se_reduce[0][0]
__________________________________________________________________________________________________
block3a_se_excite (Multiply)    (None, 16, 16, 144)  0           block3a_activation[0][0]
                                                                 block3a_se_expand[0][0]
__________________________________________________________________________________________________
block3a_project_conv (Conv2D)   (None, 16, 16, 40)   5760        block3a_se_excite[0][0]
__________________________________________________________________________________________________
block3a_project_bn (BatchNormal (None, 16, 16, 40)   160         block3a_project_conv[0][0]
__________________________________________________________________________________________________
block3b_expand_conv (Conv2D)    (None, 16, 16, 240)  9600        block3a_project_bn[0][0]
__________________________________________________________________________________________________
block3b_expand_bn (BatchNormali (None, 16, 16, 240)  960         block3b_expand_conv[0][0]
__________________________________________________________________________________________________
block3b_expand_activation (Acti (None, 16, 16, 240)  0           block3b_expand_bn[0][0]
__________________________________________________________________________________________________
block3b_dwconv (DepthwiseConv2D (None, 16, 16, 240)  6000        block3b_expand_activation[0][0]
__________________________________________________________________________________________________
block3b_bn (BatchNormalization) (None, 16, 16, 240)  960         block3b_dwconv[0][0]
__________________________________________________________________________________________________
block3b_activation (Activation) (None, 16, 16, 240)  0           block3b_bn[0][0]
__________________________________________________________________________________________________
block3b_se_squeeze (GlobalAvera (None, 240)          0           block3b_activation[0][0]
__________________________________________________________________________________________________
block3b_se_reshape (Reshape)    (None, 1, 1, 240)    0           block3b_se_squeeze[0][0]
__________________________________________________________________________________________________
block3b_se_reduce (Conv2D)      (None, 1, 1, 10)     2410        block3b_se_reshape[0][0]
__________________________________________________________________________________________________
block3b_se_expand (Conv2D)      (None, 1, 1, 240)    2640        block3b_se_reduce[0][0]
__________________________________________________________________________________________________
block3b_se_excite (Multiply)    (None, 16, 16, 240)  0           block3b_activation[0][0]
                                                                 block3b_se_expand[0][0]
__________________________________________________________________________________________________
block3b_project_conv (Conv2D)   (None, 16, 16, 40)   9600        block3b_se_excite[0][0]
__________________________________________________________________________________________________
block3b_project_bn (BatchNormal (None, 16, 16, 40)   160         block3b_project_conv[0][0]
__________________________________________________________________________________________________
block3b_drop (Dropout)          (None, 16, 16, 40)   0           block3b_project_bn[0][0]
__________________________________________________________________________________________________
block3b_add (Add)               (None, 16, 16, 40)   0           block3b_drop[0][0]
                                                                 block3a_project_bn[0][0]
__________________________________________________________________________________________________
block4a_expand_conv (Conv2D)    (None, 16, 16, 240)  9600        block3b_add[0][0]
__________________________________________________________________________________________________
block4a_expand_bn (BatchNormali (None, 16, 16, 240)  960         block4a_expand_conv[0][0]
__________________________________________________________________________________________________
block4a_expand_activation (Acti (None, 16, 16, 240)  0           block4a_expand_bn[0][0]
__________________________________________________________________________________________________
block4a_dwconv_pad (ZeroPadding (None, 17, 17, 240)  0           block4a_expand_activation[0][0]
__________________________________________________________________________________________________
block4a_dwconv (DepthwiseConv2D (None, 8, 8, 240)    2160        block4a_dwconv_pad[0][0]
__________________________________________________________________________________________________
block4a_bn (BatchNormalization) (None, 8, 8, 240)    960         block4a_dwconv[0][0]
__________________________________________________________________________________________________
block4a_activation (Activation) (None, 8, 8, 240)    0           block4a_bn[0][0]
__________________________________________________________________________________________________
block4a_se_squeeze (GlobalAvera (None, 240)          0           block4a_activation[0][0]
__________________________________________________________________________________________________
block4a_se_reshape (Reshape)    (None, 1, 1, 240)    0           block4a_se_squeeze[0][0]
__________________________________________________________________________________________________
block4a_se_reduce (Conv2D)      (None, 1, 1, 10)     2410        block4a_se_reshape[0][0]
__________________________________________________________________________________________________
block4a_se_expand (Conv2D)      (None, 1, 1, 240)    2640        block4a_se_reduce[0][0]
__________________________________________________________________________________________________
block4a_se_excite (Multiply)    (None, 8, 8, 240)    0           block4a_activation[0][0]
                                                                 block4a_se_expand[0][0]
__________________________________________________________________________________________________
block4a_project_conv (Conv2D)   (None, 8, 8, 80)     19200       block4a_se_excite[0][0]
__________________________________________________________________________________________________
block4a_project_bn (BatchNormal (None, 8, 8, 80)     320         block4a_project_conv[0][0]
__________________________________________________________________________________________________
block4b_expand_conv (Conv2D)    (None, 8, 8, 480)    38400       block4a_project_bn[0][0]
__________________________________________________________________________________________________
block4b_expand_bn (BatchNormali (None, 8, 8, 480)    1920        block4b_expand_conv[0][0]
__________________________________________________________________________________________________
block4b_expand_activation (Acti (None, 8, 8, 480)    0           block4b_expand_bn[0][0]
__________________________________________________________________________________________________
block4b_dwconv (DepthwiseConv2D (None, 8, 8, 480)    4320        block4b_expand_activation[0][0]
__________________________________________________________________________________________________
block4b_bn (BatchNormalization) (None, 8, 8, 480)    1920        block4b_dwconv[0][0]
__________________________________________________________________________________________________
block4b_activation (Activation) (None, 8, 8, 480)    0           block4b_bn[0][0]
__________________________________________________________________________________________________
block4b_se_squeeze (GlobalAvera (None, 480)          0           block4b_activation[0][0]
__________________________________________________________________________________________________
block4b_se_reshape (Reshape)    (None, 1, 1, 480)    0           block4b_se_squeeze[0][0]
__________________________________________________________________________________________________
block4b_se_reduce (Conv2D)      (None, 1, 1, 20)     9620        block4b_se_reshape[0][0]
__________________________________________________________________________________________________
block4b_se_expand (Conv2D)      (None, 1, 1, 480)    10080       block4b_se_reduce[0][0]
__________________________________________________________________________________________________
block4b_se_excite (Multiply)    (None, 8, 8, 480)    0           block4b_activation[0][0]
                                                                 block4b_se_expand[0][0]
__________________________________________________________________________________________________
block4b_project_conv (Conv2D)   (None, 8, 8, 80)     38400       block4b_se_excite[0][0]
__________________________________________________________________________________________________
block4b_project_bn (BatchNormal (None, 8, 8, 80)     320         block4b_project_conv[0][0]
__________________________________________________________________________________________________
block4b_drop (Dropout)          (None, 8, 8, 80)     0           block4b_project_bn[0][0]
__________________________________________________________________________________________________
block4b_add (Add)               (None, 8, 8, 80)     0           block4b_drop[0][0]
                                                                 block4a_project_bn[0][0]
__________________________________________________________________________________________________
block4c_expand_conv (Conv2D)    (None, 8, 8, 480)    38400       block4b_add[0][0]
__________________________________________________________________________________________________
block4c_expand_bn (BatchNormali (None, 8, 8, 480)    1920        block4c_expand_conv[0][0]
__________________________________________________________________________________________________
block4c_expand_activation (Acti (None, 8, 8, 480)    0           block4c_expand_bn[0][0]
__________________________________________________________________________________________________
block4c_dwconv (DepthwiseConv2D (None, 8, 8, 480)    4320        block4c_expand_activation[0][0]
__________________________________________________________________________________________________
block4c_bn (BatchNormalization) (None, 8, 8, 480)    1920        block4c_dwconv[0][0]
__________________________________________________________________________________________________
block4c_activation (Activation) (None, 8, 8, 480)    0           block4c_bn[0][0]
__________________________________________________________________________________________________
block4c_se_squeeze (GlobalAvera (None, 480)          0           block4c_activation[0][0]
__________________________________________________________________________________________________
block4c_se_reshape (Reshape)    (None, 1, 1, 480)    0           block4c_se_squeeze[0][0]
__________________________________________________________________________________________________
block4c_se_reduce (Conv2D)      (None, 1, 1, 20)     9620        block4c_se_reshape[0][0]
__________________________________________________________________________________________________
block4c_se_expand (Conv2D)      (None, 1, 1, 480)    10080       block4c_se_reduce[0][0]
__________________________________________________________________________________________________
block4c_se_excite (Multiply)    (None, 8, 8, 480)    0           block4c_activation[0][0]
                                                                 block4c_se_expand[0][0]
__________________________________________________________________________________________________
block4c_project_conv (Conv2D)   (None, 8, 8, 80)     38400       block4c_se_excite[0][0]
__________________________________________________________________________________________________
block4c_project_bn (BatchNormal (None, 8, 8, 80)     320         block4c_project_conv[0][0]
__________________________________________________________________________________________________
block4c_drop (Dropout)          (None, 8, 8, 80)     0           block4c_project_bn[0][0]
__________________________________________________________________________________________________
block4c_add (Add)               (None, 8, 8, 80)     0           block4c_drop[0][0]
                                                                 block4b_add[0][0]
__________________________________________________________________________________________________
block5a_expand_conv (Conv2D)    (None, 8, 8, 480)    38400       block4c_add[0][0]
__________________________________________________________________________________________________
block5a_expand_bn (BatchNormali (None, 8, 8, 480)    1920        block5a_expand_conv[0][0]
__________________________________________________________________________________________________
block5a_expand_activation (Acti (None, 8, 8, 480)    0           block5a_expand_bn[0][0]
__________________________________________________________________________________________________
block5a_dwconv (DepthwiseConv2D (None, 8, 8, 480)    12000       block5a_expand_activation[0][0]
__________________________________________________________________________________________________
block5a_bn (BatchNormalization) (None, 8, 8, 480)    1920        block5a_dwconv[0][0]
__________________________________________________________________________________________________
block5a_activation (Activation) (None, 8, 8, 480)    0           block5a_bn[0][0]
__________________________________________________________________________________________________
block5a_se_squeeze (GlobalAvera (None, 480)          0           block5a_activation[0][0]
__________________________________________________________________________________________________
block5a_se_reshape (Reshape)    (None, 1, 1, 480)    0           block5a_se_squeeze[0][0]
__________________________________________________________________________________________________
block5a_se_reduce (Conv2D)      (None, 1, 1, 20)     9620        block5a_se_reshape[0][0]
__________________________________________________________________________________________________
block5a_se_expand (Conv2D)      (None, 1, 1, 480)    10080       block5a_se_reduce[0][0]
__________________________________________________________________________________________________
block5a_se_excite (Multiply)    (None, 8, 8, 480)    0           block5a_activation[0][0]
                                                                 block5a_se_expand[0][0]
__________________________________________________________________________________________________
block5a_project_conv (Conv2D)   (None, 8, 8, 112)    53760       block5a_se_excite[0][0]
__________________________________________________________________________________________________
block5a_project_bn (BatchNormal (None, 8, 8, 112)    448         block5a_project_conv[0][0]
__________________________________________________________________________________________________
block5b_expand_conv (Conv2D)    (None, 8, 8, 672)    75264       block5a_project_bn[0][0]
__________________________________________________________________________________________________
block5b_expand_bn (BatchNormali (None, 8, 8, 672)    2688        block5b_expand_conv[0][0]
__________________________________________________________________________________________________
block5b_expand_activation (Acti (None, 8, 8, 672)    0           block5b_expand_bn[0][0]
__________________________________________________________________________________________________
block5b_dwconv (DepthwiseConv2D (None, 8, 8, 672)    16800       block5b_expand_activation[0][0]
__________________________________________________________________________________________________
block5b_bn (BatchNormalization) (None, 8, 8, 672)    2688        block5b_dwconv[0][0]
__________________________________________________________________________________________________
block5b_activation (Activation) (None, 8, 8, 672)    0           block5b_bn[0][0]
__________________________________________________________________________________________________
block5b_se_squeeze (GlobalAvera (None, 672)          0           block5b_activation[0][0]
__________________________________________________________________________________________________
block5b_se_reshape (Reshape)    (None, 1, 1, 672)    0           block5b_se_squeeze[0][0]
__________________________________________________________________________________________________
block5b_se_reduce (Conv2D)      (None, 1, 1, 28)     18844       block5b_se_reshape[0][0]
__________________________________________________________________________________________________
block5b_se_expand (Conv2D)      (None, 1, 1, 672)    19488       block5b_se_reduce[0][0]
__________________________________________________________________________________________________
block5b_se_excite (Multiply)    (None, 8, 8, 672)    0           block5b_activation[0][0]
                                                                 block5b_se_expand[0][0]
__________________________________________________________________________________________________
block5b_project_conv (Conv2D)   (None, 8, 8, 112)    75264       block5b_se_excite[0][0]
__________________________________________________________________________________________________
block5b_project_bn (BatchNormal (None, 8, 8, 112)    448         block5b_project_conv[0][0]
__________________________________________________________________________________________________
block5b_drop (Dropout)          (None, 8, 8, 112)    0           block5b_project_bn[0][0]
__________________________________________________________________________________________________
block5b_add (Add)               (None, 8, 8, 112)    0           block5b_drop[0][0]
                                                                 block5a_project_bn[0][0]
__________________________________________________________________________________________________
block5c_expand_conv (Conv2D)    (None, 8, 8, 672)    75264       block5b_add[0][0]
__________________________________________________________________________________________________
block5c_expand_bn (BatchNormali (None, 8, 8, 672)    2688        block5c_expand_conv[0][0]
__________________________________________________________________________________________________
block5c_expand_activation (Acti (None, 8, 8, 672)    0           block5c_expand_bn[0][0]
__________________________________________________________________________________________________
block5c_dwconv (DepthwiseConv2D (None, 8, 8, 672)    16800       block5c_expand_activation[0][0]
__________________________________________________________________________________________________
block5c_bn (BatchNormalization) (None, 8, 8, 672)    2688        block5c_dwconv[0][0]
__________________________________________________________________________________________________
block5c_activation (Activation) (None, 8, 8, 672)    0           block5c_bn[0][0]
__________________________________________________________________________________________________
block5c_se_squeeze (GlobalAvera (None, 672)          0           block5c_activation[0][0]
__________________________________________________________________________________________________
block5c_se_reshape (Reshape)    (None, 1, 1, 672)    0           block5c_se_squeeze[0][0]
__________________________________________________________________________________________________
block5c_se_reduce (Conv2D)      (None, 1, 1, 28)     18844       block5c_se_reshape[0][0]
__________________________________________________________________________________________________
block5c_se_expand (Conv2D)      (None, 1, 1, 672)    19488       block5c_se_reduce[0][0]
__________________________________________________________________________________________________
block5c_se_excite (Multiply)    (None, 8, 8, 672)    0           block5c_activation[0][0]
                                                                 block5c_se_expand[0][0]
__________________________________________________________________________________________________
block5c_project_conv (Conv2D)   (None, 8, 8, 112)    75264       block5c_se_excite[0][0]
__________________________________________________________________________________________________
block5c_project_bn (BatchNormal (None, 8, 8, 112)    448         block5c_project_conv[0][0]
__________________________________________________________________________________________________
block5c_drop (Dropout)          (None, 8, 8, 112)    0           block5c_project_bn[0][0]
__________________________________________________________________________________________________
block5c_add (Add)               (None, 8, 8, 112)    0           block5c_drop[0][0]
                                                                 block5b_add[0][0]
__________________________________________________________________________________________________
block6a_expand_conv (Conv2D)    (None, 8, 8, 672)    75264       block5c_add[0][0]
__________________________________________________________________________________________________
block6a_expand_bn (BatchNormali (None, 8, 8, 672)    2688        block6a_expand_conv[0][0]
__________________________________________________________________________________________________
block6a_expand_activation (Acti (None, 8, 8, 672)    0           block6a_expand_bn[0][0]
__________________________________________________________________________________________________
block6a_dwconv_pad (ZeroPadding (None, 11, 11, 672)  0           block6a_expand_activation[0][0]
__________________________________________________________________________________________________
block6a_dwconv (DepthwiseConv2D (None, 4, 4, 672)    16800       block6a_dwconv_pad[0][0]
__________________________________________________________________________________________________
block6a_bn (BatchNormalization) (None, 4, 4, 672)    2688        block6a_dwconv[0][0]
__________________________________________________________________________________________________
block6a_activation (Activation) (None, 4, 4, 672)    0           block6a_bn[0][0]
__________________________________________________________________________________________________
block6a_se_squeeze (GlobalAvera (None, 672)          0           block6a_activation[0][0]
__________________________________________________________________________________________________
block6a_se_reshape (Reshape)    (None, 1, 1, 672)    0           block6a_se_squeeze[0][0]
__________________________________________________________________________________________________
block6a_se_reduce (Conv2D)      (None, 1, 1, 28)     18844       block6a_se_reshape[0][0]
__________________________________________________________________________________________________
block6a_se_expand (Conv2D)      (None, 1, 1, 672)    19488       block6a_se_reduce[0][0]
__________________________________________________________________________________________________
block6a_se_excite (Multiply)    (None, 4, 4, 672)    0           block6a_activation[0][0]
                                                                 block6a_se_expand[0][0]
__________________________________________________________________________________________________
block6a_project_conv (Conv2D)   (None, 4, 4, 192)    129024      block6a_se_excite[0][0]
__________________________________________________________________________________________________
block6a_project_bn (BatchNormal (None, 4, 4, 192)    768         block6a_project_conv[0][0]
__________________________________________________________________________________________________
block6b_expand_conv (Conv2D)    (None, 4, 4, 1152)   221184      block6a_project_bn[0][0]
__________________________________________________________________________________________________
block6b_expand_bn (BatchNormali (None, 4, 4, 1152)   4608        block6b_expand_conv[0][0]
__________________________________________________________________________________________________
block6b_expand_activation (Acti (None, 4, 4, 1152)   0           block6b_expand_bn[0][0]
__________________________________________________________________________________________________
block6b_dwconv (DepthwiseConv2D (None, 4, 4, 1152)   28800       block6b_expand_activation[0][0]
__________________________________________________________________________________________________
block6b_bn (BatchNormalization) (None, 4, 4, 1152)   4608        block6b_dwconv[0][0]
__________________________________________________________________________________________________
block6b_activation (Activation) (None, 4, 4, 1152)   0           block6b_bn[0][0]
__________________________________________________________________________________________________
block6b_se_squeeze (GlobalAvera (None, 1152)         0           block6b_activation[0][0]
__________________________________________________________________________________________________
block6b_se_reshape (Reshape)    (None, 1, 1, 1152)   0           block6b_se_squeeze[0][0]
__________________________________________________________________________________________________
block6b_se_reduce (Conv2D)      (None, 1, 1, 48)     55344       block6b_se_reshape[0][0]
__________________________________________________________________________________________________
block6b_se_expand (Conv2D)      (None, 1, 1, 1152)   56448       block6b_se_reduce[0][0]
__________________________________________________________________________________________________
block6b_se_excite (Multiply)    (None, 4, 4, 1152)   0           block6b_activation[0][0]
                                                                 block6b_se_expand[0][0]
__________________________________________________________________________________________________
block6b_project_conv (Conv2D)   (None, 4, 4, 192)    221184      block6b_se_excite[0][0]
__________________________________________________________________________________________________
block6b_project_bn (BatchNormal (None, 4, 4, 192)    768         block6b_project_conv[0][0]
__________________________________________________________________________________________________
block6b_drop (Dropout)          (None, 4, 4, 192)    0           block6b_project_bn[0][0]
__________________________________________________________________________________________________
block6b_add (Add)               (None, 4, 4, 192)    0           block6b_drop[0][0]
                                                                 block6a_project_bn[0][0]
__________________________________________________________________________________________________
block6c_expand_conv (Conv2D)    (None, 4, 4, 1152)   221184      block6b_add[0][0]
__________________________________________________________________________________________________
block6c_expand_bn (BatchNormali (None, 4, 4, 1152)   4608        block6c_expand_conv[0][0]
__________________________________________________________________________________________________
block6c_expand_activation (Acti (None, 4, 4, 1152)   0           block6c_expand_bn[0][0]
__________________________________________________________________________________________________
block6c_dwconv (DepthwiseConv2D (None, 4, 4, 1152)   28800       block6c_expand_activation[0][0]
__________________________________________________________________________________________________
block6c_bn (BatchNormalization) (None, 4, 4, 1152)   4608        block6c_dwconv[0][0]
__________________________________________________________________________________________________
block6c_activation (Activation) (None, 4, 4, 1152)   0           block6c_bn[0][0]
__________________________________________________________________________________________________
block6c_se_squeeze (GlobalAvera (None, 1152)         0           block6c_activation[0][0]
__________________________________________________________________________________________________
block6c_se_reshape (Reshape)    (None, 1, 1, 1152)   0           block6c_se_squeeze[0][0]
__________________________________________________________________________________________________
block6c_se_reduce (Conv2D)      (None, 1, 1, 48)     55344       block6c_se_reshape[0][0]
__________________________________________________________________________________________________
block6c_se_expand (Conv2D)      (None, 1, 1, 1152)   56448       block6c_se_reduce[0][0]
__________________________________________________________________________________________________
block6c_se_excite (Multiply)    (None, 4, 4, 1152)   0           block6c_activation[0][0]
                                                                 block6c_se_expand[0][0]
__________________________________________________________________________________________________
block6c_project_conv (Conv2D)   (None, 4, 4, 192)    221184      block6c_se_excite[0][0]
__________________________________________________________________________________________________
block6c_project_bn (BatchNormal (None, 4, 4, 192)    768         block6c_project_conv[0][0]
__________________________________________________________________________________________________
block6c_drop (Dropout)          (None, 4, 4, 192)    0           block6c_project_bn[0][0]
__________________________________________________________________________________________________
block6c_add (Add)               (None, 4, 4, 192)    0           block6c_drop[0][0]
                                                                 block6b_add[0][0]
__________________________________________________________________________________________________
block6d_expand_conv (Conv2D)    (None, 4, 4, 1152)   221184      block6c_add[0][0]
__________________________________________________________________________________________________
block6d_expand_bn (BatchNormali (None, 4, 4, 1152)   4608        block6d_expand_conv[0][0]
__________________________________________________________________________________________________
block6d_expand_activation (Acti (None, 4, 4, 1152)   0           block6d_expand_bn[0][0]
__________________________________________________________________________________________________
block6d_dwconv (DepthwiseConv2D (None, 4, 4, 1152)   28800       block6d_expand_activation[0][0]
__________________________________________________________________________________________________
block6d_bn (BatchNormalization) (None, 4, 4, 1152)   4608        block6d_dwconv[0][0]
__________________________________________________________________________________________________
block6d_activation (Activation) (None, 4, 4, 1152)   0           block6d_bn[0][0]
__________________________________________________________________________________________________
block6d_se_squeeze (GlobalAvera (None, 1152)         0           block6d_activation[0][0]
__________________________________________________________________________________________________
block6d_se_reshape (Reshape)    (None, 1, 1, 1152)   0           block6d_se_squeeze[0][0]
__________________________________________________________________________________________________
block6d_se_reduce (Conv2D)      (None, 1, 1, 48)     55344       block6d_se_reshape[0][0]
__________________________________________________________________________________________________
block6d_se_expand (Conv2D)      (None, 1, 1, 1152)   56448       block6d_se_reduce[0][0]
__________________________________________________________________________________________________
block6d_se_excite (Multiply)    (None, 4, 4, 1152)   0           block6d_activation[0][0]
                                                                 block6d_se_expand[0][0]
__________________________________________________________________________________________________
block6d_project_conv (Conv2D)   (None, 4, 4, 192)    221184      block6d_se_excite[0][0]
__________________________________________________________________________________________________
block6d_project_bn (BatchNormal (None, 4, 4, 192)    768         block6d_project_conv[0][0]
__________________________________________________________________________________________________
block6d_drop (Dropout)          (None, 4, 4, 192)    0           block6d_project_bn[0][0]
__________________________________________________________________________________________________
block6d_add (Add)               (None, 4, 4, 192)    0           block6d_drop[0][0]
                                                                 block6c_add[0][0]
__________________________________________________________________________________________________
block7a_expand_conv (Conv2D)    (None, 4, 4, 1152)   221184      block6d_add[0][0]
__________________________________________________________________________________________________
block7a_expand_bn (BatchNormali (None, 4, 4, 1152)   4608        block7a_expand_conv[0][0]
__________________________________________________________________________________________________
block7a_expand_activation (Acti (None, 4, 4, 1152)   0           block7a_expand_bn[0][0]
__________________________________________________________________________________________________
block7a_dwconv (DepthwiseConv2D (None, 4, 4, 1152)   10368       block7a_expand_activation[0][0]
__________________________________________________________________________________________________
block7a_bn (BatchNormalization) (None, 4, 4, 1152)   4608        block7a_dwconv[0][0]
__________________________________________________________________________________________________
block7a_activation (Activation) (None, 4, 4, 1152)   0           block7a_bn[0][0]
__________________________________________________________________________________________________
block7a_se_squeeze (GlobalAvera (None, 1152)         0           block7a_activation[0][0]
__________________________________________________________________________________________________
block7a_se_reshape (Reshape)    (None, 1, 1, 1152)   0           block7a_se_squeeze[0][0]
__________________________________________________________________________________________________
block7a_se_reduce (Conv2D)      (None, 1, 1, 48)     55344       block7a_se_reshape[0][0]
__________________________________________________________________________________________________
block7a_se_expand (Conv2D)      (None, 1, 1, 1152)   56448       block7a_se_reduce[0][0]
__________________________________________________________________________________________________
block7a_se_excite (Multiply)    (None, 4, 4, 1152)   0           block7a_activation[0][0]
                                                                 block7a_se_expand[0][0]
__________________________________________________________________________________________________
block7a_project_conv (Conv2D)   (None, 4, 4, 320)    368640      block7a_se_excite[0][0]
__________________________________________________________________________________________________
block7a_project_bn (BatchNormal (None, 4, 4, 320)    1280        block7a_project_conv[0][0]
__________________________________________________________________________________________________2021-10-04 20:12:44.400340: I tensorflow/core/platform/cpu_feature_guard.cc:142] This TensorFlow binary is optimized with oneAPI Deep Neural Network Library (oneDNN) to use the following CPU instructions in performance-critical operations:  AVX2 FMA
To enable them in other operations, rebuild TensorFlow with the appropriate compiler flags.
…
2021-10-04 20:12:45.324922: I tensorflow/core/common_runtime/gpu/gpu_device.cc:1258] Device interconnect StreamExecutor with strength 1 edge matrix:
2021-10-04 20:12:45.325031: I tensorflow/core/common_runtime/gpu/gpu_device.cc:1264]      0
2021-10-04 20:12:45.325062: I tensorflow/core/common_runtime/gpu/gpu_device.cc:1277] 0:   N
2021-10-04 20:12:45.331254: I tensorflow/core/common_runtime/gpu/gpu_device.cc:1418] Created TensorFlow device (/job:localhost/replica:0/task:0/device:GPU:0 with 38423 MB memory) -> physical GPU (device: 0, name: A100-SXM4-40GB, pci bus id: 0000:c1:00.0, compute capability: 8.0)

top_conv (Conv2D)               (None, 4, 4, 1280)   409600      block7a_project_bn[0][0]
__________________________________________________________________________________________________
top_bn (BatchNormalization)     (None, 4, 4, 1280)   5120        top_conv[0][0]
__________________________________________________________________________________________________
top_activation (Activation)     (None, 4, 4, 1280)   0           top_bn[0][0]
__________________________________________________________________________________________________
pool5 (GlobalAveragePooling2D)  (None, 1280)         0           top_activation[0][0]
__________________________________________________________________________________________________
Compound (Dense)                (None, 512)          655872      pool5[0][0]
==================================================================================================
Total params: 4,706,023
Trainable params: 4,663,996
Non-trainable params: 42,027
__________________________________________________________________________________________________
2021-10-04 20:12:45,783 - WARNING - From /DeepProfiler/deepprofiler/learning/model.py:133: The name tf.keras.backend.set_session is deprecated. Please use tf.compat.v1.keras.backend.set_session instead.
…
